Bertopic_model_save/topic_embeddings.safetensors (safetensors, 557656 bytes, 1 tensors)

topic_embeddings f4 [363, 384]
000000 5d 48 df bc 41 4e a0 bc 33 c0 f8 3c 7d 76 d8 3c
       -0.027256185 -0.019568564 0.030365085 0.026423687
000010 83 db 68 ba 27 28 8b 3c 41 03 11 3d 85 1c 57 bc
       -0.00088828075 0.01698692 0.035403494 -0.013129358
000020 cb 48 df bc d7 64 b7 bc 91 25 9c 3c e0 af 04 bd
       -0.02725639 -0.022386951 0.019060882 -0.03239429
000030 b8 b0 0b 3c 8b cf 11 3a a5 35 73 3c b3 32 64 3c
       0.00852602 0.00055622373 0.014844333 0.013928103
000040 bb c2 13 3d 42 81 d8 bc 2a 85 a9 bd 6b bb 3b bb
       0.03607438 -0.026428822 -0.08277352 -0.0028645645
000050 d8 a0 4f bc 53 e7 b8 3c a7 c9 8d bc e9 5f a1 bb
       -0.0126726255 0.022571241 -0.01730807 -0.0049247635
000060 f0 7a 49 bd 0c c4 1c 3d dd 39 12 bd 65 bc 21 bd
       -0.049189508 0.038272902 -0.035699714 -0.039486308
000070 11 ca 66 bc 62 2c 1b bc 2d 81 b6 3c 2a 64 9c 3d
       -0.014086262 -0.009471031 0.022278393 0.07636292
000080 bb 8e 03 3d e9 5e 49 3c 30 a7 2d bc 62 21 b6 3a
       0.03211854 0.012290695 -0.010598943 0.0013895447
000090 1c 77 87 bc 3f fd 3a 3d 96 0a a9 3c 91 a5 63 bd
       -0.016536288 0.04565167 0.02063493 -0.05557782
0000a0 4b 79 67 bd f4 6a 35 bd 59 6d ea 3c 68 54 24 bd
       -0.05651216 -0.04429145 0.028616594 -0.04011956
0000b0 b1 3b f9 bc 9b e3 e8 bc 05 ba 03 bd 6d 51 0a bd
       -0.03042397 -0.028428843 -0.032159824 -0.03376906
0000c0 ae 25 f8 3b 99 0c e1 bc 1f 01 09 bd 10 de 5d bd
       0.007572851 -0.027471827 -0.033448335 -0.054166853
0000d0 c9 f2 c0 3b 6d 91 53 3d 7e fd 85 3b 3c 67 e9 bb
       0.0058883172 0.05165236 0.0040890565 -0.007122902
0000e0 b4 59 63 bc c0 9e f6 3c d5 71 59 bc ae 29 0b 3b
       -0.013876367 0.030104995 -0.013271769 0.002123456
0000f0 c6 6c 62 bd 7f 90 c9 3b 4e ce 8c bb 9d 98 9a bc
       -0.055279516 0.0061512585 -0.0042970544 -0.0188716
000100 60 36 2c bd a8 d2 f4 3c 25 f2 15 bd 5e b0 23 3d
       -0.042044044 0.029885605 -0.03660788 0.03996312
000110 86 a8 0f 3d 85 d4 7d 3d 3b 98 02 bd 76 39 c9 3c
       0.035072826 0.061970253 -0.03188346 0.024563532
000120 5e cb b1 bc 59 a7 34 3d f3 ae f8 3b 93 7e 48 3d
       -0.021703418 0.044104908 0.007589215 0.048948836
000130 5d ce 84 3a c9 5a de bc f3 56 c5 3c c2 e9 8f 3b
       0.0010132302 -0.0271429 0.024089312 0.00439188
000140 54 14 60 bd 76 10 2d 3a 99 0a e0 bc 0a 6b 71 bc
       -0.054706886 0.0006601879 -0.027348803 -0.014734993
000150 68 b4 7b bd bc ab 0e bd 6f b4 4e bd 19 81 75 bc
       -0.061451346 -0.034831747 -0.050465044 -0.014984393
000160 53 66 1e 3a 67 61 9f bc 40 5c 6f bb 2e d0 b0 bc
       0.0006042469 -0.019455625 -0.003652349 -0.021583643
000170 06 87 86 3d 76 82 30 bc 60 b5 2b ba 46 fe 6c bd
       0.065687224 -0.010773292 -0.00065501593 -0.05785968
000180 1d 16 5d bd f0 7d 43 bc 61 e0 8e bd e0 d5 43 3d
       -0.053976167 -0.011931881 -0.06976391 0.04781139
000190 8c fc 5f bc e9 a3 57 3d aa b3 0d 3d ae ce 66 3c
       -0.013671052 0.05264655 0.03459517 0.014087362
0001a0 ec 2e 07 3d 54 e3 3e 3c 3e 82 8b 3c 28 47 60 3a
       0.033003733 0.011650879 0.017029878 0.0008555525
0001b0 a6 cd 15 bd 3f 55 32 3c 3b 9c 20 bd 48 e2 06 bc
       -0.036573075 0.010884582 -0.039211493 -0.008232661
0001c0 c3 34 45 bc 29 e9 a7 bd 9c ac d8 3c 45 56 bc bc
       -0.012036505 -0.08198769 0.026449494 -0.022990355
0001d0 01 7e 58 3d 73 74 1d 3d c2 5e 8d 3c 6e 24 10 bc
       0.05285454 0.038441133 0.017257098 -0.008797748
0001e0 49 24 1a bc 0e 83 39 3d 79 dd bd bc 8d 04 17 3d
       -0.009408065 0.045291 -0.023176895 0.036869574
0001f0 a3 39 33 bb a1 70 35 bc 61 a3 e5 38 d0 bf f8 0a
       -0.0027347587 -0.011074216 0.000109500026 2.3953683e-32
000200 f6 49 3f 3d f4 c4 ae 3c ca bf d9 bc 76 a6 2a 3d
       0.046701394 0.021334149 -0.02658071 0.041662656
000210 6a 2d 8c 3c 12 c2 3f 3d 27 65 dd bc 10 cc 09 3d
       0.017111499 0.04681594 -0.027025772 0.033641875
000220 ab d3 a4 3c 6b c4 e0 bc bc 21 4e 3d 2e 8e f4 bc
       0.020120462 -0.02743741 0.05032514 -0.029852953
000230 0b 88 02 bb ab 0a 09 bd 37 b4 9b bc 94 2c f5 bb
       -0.0019917514 -0.03345744 -0.019006832 -0.007482121
000240 a9 f9 5d bc 72 ff 8c 3c 9d d2 a0 bc 70 8f 1e 3d
       -0.013548293 0.01721165 -0.019631678 0.03871101
000250 f7 f8 8f 3c f3 cc da 3b 10 d3 28 3c 95 db 62 bb
       0.01757477 0.006677264 0.0103042275 -0.0034615744
000260 65 4b b2 bc 93 7d 21 bd 7b 62 d8 3c 6d ed b9 3b
       -0.021764467 -0.039426398 0.026414147 0.0056740553
000270 06 0f 4f 3d 2f 01 0b bc bf 06 9a bb c8 53 78 3b
       0.050551437 -0.008484169 -0.004700511 0.0037891734
000280 93 d8 83 3c ba 69 51 bd 41 a7 d5 bc aa 85 98 b9
       0.016094482 -0.05112622 -0.02608073 -0.00029091287
000290 4b 5c 7c 3d 50 b5 ec bc 9b af ce bc 4c 3b 90 bd
       0.061611455 -0.02889505 -0.02523022 -0.0704256
0002a0 79 2c 41 bd ff ba e4 3b 9e 6d 09 bd 47 92 e8 bb
       -0.047161553 0.0069802995 -0.033551805 -0.0070975157
0002b0 37 c2 d8 3c af 34 bc 3c 45 9e 40 3c 99 cd d0 bc
       0.026459796 0.02297434 0.011756484 -0.025488662
0002c0 dc 74 1c bd 98 93 a3 3c 4d 16 88 bc 17 76 31 3c
       -0.038197383 0.01996784 -0.016612196 0.0108313775
0002d0 0a 4b ab 3c 0d ed 46 3c ef 37 80 bd df 5a 61 3c
       0.020909805 0.012141478 -0.062606685 0.0137545755
0002e0 f2 69 3b bc 1f 3b d3 bb f9 0d 9d 3c 8a dc d0 3c
       -0.011438834 -0.006446257 0.019171702 0.025495786
0002f0 22 2e 8a 3d 6f 1e f4 bc a2 36 29 bb 8c 63 1b bd
       0.067470804 -0.029799668 -0.0025819917 -0.037936732
000300 85 4d f0 bc ca b9 73 bd f0 c0 df 3c ed f3 b7 bc
       -0.02933384 -0.059503354 0.02731368 -0.02245518
000310 cc fe c6 bc 9b 5b 33 3d 4c ac 08 bc 30 c2 ee 3c
       -0.024291418 0.043788534 -0.00834186 0.02914533
000320 5e f6 23 bc 3d be 69 3c ce 71 2b 3c 29 bf dc 3b
       -0.010007469 0.014266548 0.010464145 0.0067366553
000330 d0 03 28 bb bc 6a 24 bd 12 d1 b4 bb 44 f1 db bc
       -0.0025637038 -0.040140852 -0.005518087 -0.026848443
000340 34 08 10 3d 33 c0 0c bd c1 c5 09 bc cf 66 89 3c
       0.035164073 -0.034362983 -0.008408965 0.016772656
000350 d2 c5 af 3c a0 74 96 bc 20 f4 03 ba 6e f7 77 bd
       0.021456633 -0.018366158 -0.0005033631 -0.0605387
000360 81 70 4d bd 1f a5 ef 3c 19 7c f1 bc b4 c5 0b 3c
       -0.05015612 0.02925354 -0.02947812 0.008531023
000370 56 54 69 3d d0 42 6f 3c 90 e8 6b bc 92 36 e5 8a
       0.056965195 0.014603332 -0.014398709 -2.2072425e-32
000380 e1 75 90 bc bf c7 7a 3c 6b 95 6c bc c3 b7 05 3d
       -0.017634334 0.015306412 -0.014439921 0.032645952
000390 1a 4b 25 3d 5c 7a 18 bd 2d 6a 5b bd 43 10 89 ba
       0.040354826 -0.037226066 -0.053568054 -0.0010457117
0003a0 d1 b4 bb 3d 2d d1 62 3d 5a d3 86 bc b5 28 ae bc
       0.09165347 0.055375267 -0.016458202 -0.021259645
0003b0 f9 80 16 3d 5a 07 b8 3b ca 37 5b 3c 57 8b 78 bd
       0.03674409 0.0056161107 0.01338 -0.06067976
0003c0 1b 0d 24 3d 00 65 a0 bc 82 be a2 bb 09 a2 e8 3c
       0.04005156 -0.01957941 -0.004966558 0.028397577
0003d0 83 7b 43 bb a2 a8 58 3d 67 fd a4 bd 51 cc 2f 3d
       -0.0029828257 0.052895196 -0.08056145 0.04291946
0003e0 ed 78 ef 3a 1f 3d 11 3d ba 76 ce 3b 82 63 df 3c
       0.0018270292 0.03545868 0.0063007744 0.027269129
0003f0 0c 28 02 bc 7d 08 df 3b a2 8c 26 bd c4 4a 05 bc
       -0.007944118 0.006806432 -0.04066146 -0.008135501
